…
ve T if needed.", "reasoning": "We have OpenCV installation issue with missing libGL.so.1. We could install libgl1 or use Pillow/numpy alternatives. Let's just use numpy with scipy.ndimage to find dark pixel clusters. Or we can manually process: the earlier OCR text lists gave coordinates of detected text, we can use those to identify each text. The tesseract output actually gave us text with coordinates. Let's parse the OCR output more carefully.\n\nFrom earlier ocr_full.py output, we have lines like:\n- \"10\" at (24,11) size (13x9) - these are top axis labels (numbers on axes)\n- \"os\" at (22,71) - probably \"0.5\"\n- \"0.0\" at (22,119)\n- \"05\" at (15,190) - \"0.5\"\n- \"10\" at (23,249)\n- \"-10\" at (43,260) - axis labels bottom of row1\n- \"05.0005\" at (97,260) - maybe \"0.5 0 0.5\"?\n- \"10\" at (262,260)\n- \"<0\" at (327,260) - maybe \"-1.0\"?\n- etc.\n\nThese appear to be axis tick labels. The plots themselves likely have plot numbers and r/t labels inside. Let's extract the center region of each plot and run OCR on that. Also the gaps between rows contain labels; let's look at row 255-286 and 528-559 more carefully.\n\nLet's write a Python script to:\n1. For each plot region, crop a small area in the top-left corner a
…
ch: use adaptive thresholding or detect dark pixels directly and cluster them.\n\nLet's examine the thresholded image by saving it, and also look at pixel values around known text positions from earlier OCR (e.g., at (24,11) where \"10\" was detected).", "toolCalls": [{"name": "bash_command", "args": "{\"keystrokes\": \"cat > /app/check_text.py << 'EOF'\\nfrom PIL import Image\\nimport numpy as np\\n\\nimg = Image.open('/app/image.png').convert('L')\\narr = np.array(img)\\n\\n# Check pixel values at known text locations from OCR\\n# \\\"10\\\" at (24,11) size (13x9)\\nprint(\\\"Region '10' at (24,11) 13x9:\\\")\\nregion = arr[11:20, 24:37]\\nfor row in region:\\n    print(' '.join(f'{p:3d}' for p in row))\\n\\nprint(\\\"\\\\nRegion 'os' at (22,71) 15x7:\\\")\\nregion = arr[71:78, 22:37]\\nfor row in region:\\n    print(' '.join(f'{p:3d}' for p in row))\\n\\nprint(\\\"\\\\nRegion '0.0' at (22,119) 15x28:\\\")\\nregion = arr[119:147, 22:37]\\nfor row in region:\\n    print(' '.join(f'{p:3d}' for p in row))\\n\\nprint(\\\"\\\\nRegion '-10' at (43,260) 22x9:\\\")\\nregion = arr[260:269, 43:65]\\nfor row in region:\\n    print(' '.join(f'{p:3d}' for p in row))\\nEOF\\npython3 /app/check_text.py\\n\", \"duration\": 0.3}"}], "observation": "New Terminal Output:\n\nroot@6e07593a-b332-422f-b20d-359bfc5456b0:/app# cat > /app/check_text.py << 'EOF'\n> from PIL import Image\n> import numpy as np\n>\n> img = Image.open('/app/image.png').convert('L')\n> arr = np.array(img)\n>\n> # Check pixel values at known text locations from OCR\n> # \"10\" at (24,11) size (13x9)\n> print(\"Region '10' at (24,11) 13x9:\")\n> region = arr[11:20, 24:37]\n> for row in region:\n>     print(' '.join(f'{p:3d}' for p in row))\n>\n> print(\"\\nRegion 'os' at (22,71) 15x7:\")\n> region = arr[71:78, 22:37]\n> for row in region:\n>     print(' '.join(f'{p:3d}' for p in row))\n>\n> print(\"\\nRegion '0.0' at (22,119) 15x28:\")\n> region = arr[119:147, 22:37]\n> for row in region:\n>     print(' '.join(f'{p:3d}' for p in row))\n>\n> print(\"\\nRegion '-10' at (43,260) 22x9:\")\n> region = arr[260:269, 43:65]\n> for row in region:\n>     print(' '.join(f'{p:3d}' for p in row))\n> EOF\nroot@6e07593a-b332-422f-b20d-359bfc5456b0:/app# python3 /app/check_text.py\nRegion '10' at (24,11) 13x9:\n129 208 255 255 255 255 255 255 198 177 195 170 216\n138 207 255 255 255 255 255 228 140 209 255 182 158\n147 208 255 255 255 255 255 186 136 222 255 216 136\n146 208 255 255 255 255 255 171 145 229 255 226 126\n146 208 255 255 255 255 255 166 144 230 255 225 125\n147 208 255 255 255 255 255 183 144 226 255 216 134\n145 208 255 255 246 236 253 224 139 208 255 189 150\n134 190 250 255 206 157 227 255 176 187 229 170 201\n162 177 232 255 217 181 233 255 247 199 182 213 250\n\nRegion 'os' at (22,71) 15x7:\n166 178 254 194 160 230 255 255 255 255 212 177 202 210 235\n130 200 255 232 135 202 255 255 255 255 168 146 195 239 255\n130 215 255 250 135 181 250 255 255 249 201 157 120 148 229\n129 217 255 249 131 177 249 255 255 255 255 255 229 128 178\n130 214 255 246 135 187 252 255 255 255 255 255 255 182 162\n136 198 255 227 137 204 251 248 253 253 252 255 255 195 184\n173 176 235 188 169 239 222 187 238 235 204 224 237 190 225\n\nRegion '0.0' at (22,119) 15x28:\n255 255 255 255 255 255 255 255 255 255 255 255 255 255 255\n255 255 255 255 255 255 255 255 255 255 255 255 255 255 255\n255 255 255 255 255 255 255 255 255 255 255 255 255 255 255\n255 255 255 255 255 255 255 255 255 255 255 255 255 255 255\n255 255 255 255 255 255 255 255 255 255 255 255 255 255 255\n255 255 255 255 255 255 255 255 255 255 255 255 255 255 255\n255 255 255 255 255 255 255 
…
tion with V=2E. So we need to know which simulation is omitted, which gives us m, E, Δz. Then compute |t|^2 for that set given V=2E. The value n0 is probably the base plot number (from 1-12). So the answer is like n0 divided by |t|^2.\n\nThus the key is identifying parameters from the image. Let's try harder to extract text.\n\nLet me manually examine specific pixel coordinates to read text. I'll write a script that outputs pixel values at specific locations where text is expected, and I can visually interpret the numbers.\n\nFrom earlier tesseract output, we have text locations:\n- \"10\" at (24,11) - likely \"1.0\"\n- \"os\" at (22,71) - likely \"0.5\"\n- \"0.0\" at (22,119) \n- \"05\" at (15,190) - \"0.5\"\n- \"10\" at (23,249) - \"1.0\"\n- \"-10\" at (43,260) - \"-1.0\"\n- \"Lo\" at (308,283) - \"1.0\"\n- etc.\n\nThese are y-axis labels on left side. The axes are:\nRow 1: y labels at x~22 with values: 1.0, 0.5, 0.0, 0.5, 1.0 (but one might be -0.5, -1.0). Actually from OCR: \"os\"=0.5?, \"0.0\", \"05\"=0.5?, \"10\"=1.0, \"-10\"=-1.0.\n\nSo left axis goes from -1.0 to 1.0.\n\nNow the important text: plot numbers, r/t labels, and parameters. Let's crop the very top-left corner of each plo
…
ng labels, % pixels with diff<5):\\nPlot 1 vs 6: 90.58%  (most similar pair)\\nPlot 9 vs 11: 91.11% (most similar pair)\\nPlot 6 vs 11: 91.03%\\nPlot 1 vs 3: 90.10%\\nPlot 1 vs 11: 89.58%\\nPlot 3 vs 6: 89.53%\\nPlot 3 vs 11: 89.33%\\nPlot 9 vs 10: 88.77%\\n\\nCurve pixel count (colored pixels, % of plot area):\\nLow density (<5%): Plot 6 (3.8%), Plot 11 (4.4%), Plot 1 (5.0%), Plot 3 (6.5%)\\nMedium (5-10%): Plot 9 (9.1%), Plot 8 (9.9%), Plot 5 (8.4%), Plot 12 (9.2%)\\nHigh (>10%): Plot 2 (10.5%), Plot 4 (11.1%), Plot 7 (12.4%), Plot 10 (12.6%)\\n\\nMean color of curve pixels (RGB):\\nPlot 1: (108,112,192) - bluish\\nPlot 2: (69,84,238) - very blue\\nPlot 3: (82,95,214) - blue\\nPlot 4: (68,81,240) - very blue\\nPlot 5: (70,84,238) - very blue\\nPlot 6: (94,97,203) - bluish\\nPlot 7: (57,68,243) - very blue\\nPlot 8: (73,89,212) - blue\\nPlot 9: (94,104,200) - bluish\\nPlot 10: (66,77,241) - very blue\\nPlot 11: (89,96,212) - blue\\nPlot 12: (73,85,238) - very blue\\n\\nOCR FRAGMENTS (unreliable):\\n- Column headers: all four read \\\"eee\\\" (could be r/t labels?)\\n- Row labels: \\\"A.V\\\" \\\"0.5 0.0 -0.5\\\", \\\"LV\\\" \\\"0.5 0.0 -0.5\\\", \\\"s.V\\\" \\\"0.5 0.0 -0.5\\\" (axis ticks)\\n- Vertical gaps: \\\"hd : 0.5 0.0 -0.5 -1.0 -\\\" repeated (axis ticks)\\n- Horizontal gaps: \\\"~ -10 -0.5 0.0 0.5\\\" repeated (axis labels)\\n- Plot corn
…
